…
  pose_estimator: pose_estimator.h5
  resume: 1
  saveDir: ../exp/baseline_fasion
  start_epoch: 0
  tmp_pose_dir: tmp/fasion/
  training_ratio: 1
  tv_penalty_weight: 0
  use_dropout_test: 0
  use_input_pose: True
  warp_agg: max
  warp_skip: none
(256, 256)
Statistics for loaded dataset : Human 3.6
Number of images: 52712
Number of pairs train: 101268
Number of pairs test: 8670
Statistics for loaded dataset : Human 3.6
Number of images: 52712
Number of pairs train: 101268
Number of pairs test: 8670
---------- Networks initialized -------------
Generator(
  (encoder): encoder(
    (net): ModuleList(
      (0): Conv2d(39, 64, kernel_size=(3, 3), stride=(1, 1), padding=(1, 1))
      (1): Block(
        (net): Sequential(
          (0): LeakyReLU(0.2)
          (1): Conv2d(64, 128, kernel_size=(4, 4), stride=(2, 2), padding=(1, 1))
          (2): InstanceNorm2d(128, eps=1e-05, momentum=0.1, affine=False)
        )
      )
      (2): Block(
        (net): Sequential(
          (0): LeakyReLU(0.2)
          (1): Conv2d(128, 256, kernel_size=(4, 4), stride=(2, 2), padding=(1, 1))
          (2): InstanceNorm2d(256, eps=1e-05, momentum=0.1, affine=False)
        )
      )
      (3): Block(
        (net): Sequential(
          (0): LeakyReLU(0.2)
          (1): Conv2d(256, 512, kernel_size=(4, 4), stride=(2, 2), padding=(1, 1))
          (2): InstanceNorm2d(512, eps=1e-05, momentum=0.1, affine=False)
        )
      )
      (4): Block(
        (net): Sequential(
          (0): LeakyReLU(0.2)
          (1): Conv2d(512, 512, kernel_size=(4, 4), stride=(2, 2), padding=(1, 1))
          (2): InstanceNorm2d(512, eps=1e-05, momentum=0.1, affine=False)
        )
      )
      (5): Block(
        (net): Sequential(
          (0): LeakyReLU(0.2)
          (1): Conv2d(512, 512, kernel_size=(4, 4), stride=(2, 2), padding=(1, 1))
          (2): InstanceNorm2d(512, eps=1e-05, momentum=0.1, affine=False)
        )
      )
      (6): Block(
        (net): Sequential(
          (0): LeakyReLU(0.2)
          (1): Conv2d(512, 512, kernel_size=(4, 4), stride=(2, 2), padding=(1, 1))
        )
      )
    )
  )
  (decoder): decoder(
    (net): ModuleList(
      (0): Block(
        (net): Sequential(
          (0): ReLU()
          (1): ConvTranspose2d(512, 512, kernel_size=(4, 4), stride=(2, 2))
          (2): Cropping2D(
          )
          (3): InstanceNorm2d(512, eps=1e-05, momentum=0.1, affine=False)
          (4): Dropout2d(p=0.5)
        )
      )
      (1): Block(
        (net): Sequential(
          (0): ReLU()
          (1): ConvTranspose2d(1024, 512, kernel_size=(4, 4), stride=(2, 2))
          (2): Cropping2D(
          )
          (3): InstanceNorm2d(512, eps=1e-05, momentum=0.1, affine=False)
          (4): Dropout2d(p=0.5)
        )
      )
      (2): Block(
        (net): Sequential(
          (0): ReLU()
          (1): ConvTranspose2d(1024, 512, kernel_size=(4, 4), stride=(2, 2))
          (2): Cropping2D(
          )
          (3): InstanceNorm2d(512, eps=1e-05, momentum=0.1, affine=False)
          (4): Dropout2d(p=0.5)
        )
      )
      (3): Block(
        (net): Sequential(
          (0): ReLU()
          (1): ConvTranspose2d(1024, 512, kernel_size=(4, 4), stride=(2, 2))
          (2): Cropping2D(
          )
          (3): InstanceNorm2d(512, eps=1e-05, momentum=0.1, affine=False)
        )
      )
      (4): Block(
        (net): Sequential(
          (0): ReLU()
          (1): ConvTranspose2d(768, 256, kernel_size=(4, 4), stride=(2, 2))
          (2): Cropping2D(
          )
          (3): InstanceNorm2d(256, eps=1e-05, momentum=0.1, affine=False)
        )
      )
      (5): Block(
        (net): Sequential(
          (0): ReLU()
          (1): ConvTranspose2d(384, 128, kernel_size=(4, 4), stride=(2, 2))
          (2): Cropping2D(
          )
          (3): InstanceNorm2d(128, eps=1e-05, momentum=0.1, affine=False)
        )
      )
      (6): ReLU()
      (7): Conv2d(192, 3, kernel_size=(3, 3), stride=(1, 1), padding=(1, 1))
      (8): Tanh()
    )
  )
)
Total number of parameters: 48660291
Discriminator(
  (net): Sequential(
    (0): Conv2d(42, 64, kernel_size=(4, 4), stride=(2, 2))
    (1): Block(
      (net): Sequential(
        (0): LeakyReLU(0.2)
        (1): Conv2d(64, 128, kernel_size=(4, 4), stride=(2, 2), padding=(1, 1))
        (2): InstanceNorm2d(128, eps=1e-05, momentum=0.1, affine=False)
      )
    )
    (2): Block(
      (net): Sequential(
        (0): LeakyReLU(0.2)
        (1): Conv2d(128, 256, kernel_size=(4, 4), stride=(2, 2), padding=(1, 1))
        (2): InstanceNorm2d(256, eps=1e-05, momentum=0.1, affine=False)
      )
    )
    (3): Block(
      (net): Sequential(
        (0): LeakyReLU(0.2)
        (1): Conv2d(256, 512, kernel_size=(4, 4), stride=(2, 2), padding=(1, 1))
        (2): InstanceNorm2d(512, eps=1e-05, momentum=0.1, affine=False)
      )
    )
    (4): Block(
      (net): Sequential(
        (0): LeakyReLU(0.2)
        (1): Conv2d(512, 1, kernel_size=(4, 4), stride=(2, 2), padding=(1, 1))
      )
    )
    (5): Sigmoid()
    (6): Flatten(
    )
  )
)
Total number of parameters: 2804673
-----------------------------------------------
Resume gen from epoch 5
Resume disc from epoch 5
Num iterations :  1000
Epoch : 5 | Progress : 0.00 | Total Loss : 10.5086 | Gen Total Loss : 4.8386, Gen Ad Loss : 3.3767, Gen LL Loss : 0.1462  | Disc Loss : 5.6700 
…
